…
n the paper.\nSample Type Scale Unique Scan # Training/Validation Image # Testing Image # Walnut Leaf 1 1 5 5\n1 2 10 5 1 3 15 5 1 4 20 5 1 5 25 5\nAlmond Bud 0.5 1 7 7 0.85 1 7 7 Soil Aggregate 0.5 1 11 5 0.85 1 11 5\nSI Table 2: Tabular representation of a Pytorch implementation of a Fully Convolutional Network with a Res-net 101 backbone with an input image size of 1000x500 pixels with 6 material classes. ===================================================================== Layer (type:depth-idx) Output Shape Param # ===================================================================== FCN [1, 6, 1000, 500] -- \u251c\u2500IntermediateLayerGetter: [1, 2048, 125, 63] -- \u2502 \u2514\u2500Conv2d: [1, 64, 500, 250] 9,408 \u2502 \u2514\u2500BatchNorm2d: [1, 64, 500, 250] 128 \u2502 \u2514\u2500ReLU: [1, 64, 500, 250] -- \u2502 \u2514\u2500MaxPool2d: [1, 64, 250, 125] -- \u2502 \u2514\u2500Sequential: 1 [1, 256, 250, 125] -- \u2502 \u2502 \u2514\u2500Bottleneck: 0 [1, 256, 250, 125] 75,008 \u2502 \u2502 \u2514\u2500Bottleneck: 1 [1, 256, 250, 125] 70,400 \u2502 \u2502 \u2514\u2500Bottleneck: 2 [1, 256, 250, 125] 70,400 \u2502 \u2514\u2500Sequential: 2 [1, 512, 125, 63] -- \u2502 \u2502 \u2514\u2500Bottleneck: 0 [1, 512, 125, 63] 379,392 \u2502 \u2502 \u2514\u2500Bottleneck: 1 [1, 512, 125, 63] 280,064 \u2502 \u2502 \u2514\u2500Bottleneck: 2 [1, 512, 125, 63] 280,064 \u2502 \u2502 \u2514\u2500Bottleneck: 3 [1, 512, 125, 63] 280,064 \u2502 \u2514\u2500Sequential: 3 [1, 1024, 125, 63] -- \u2502 \u2502 \u2514\u2500Bottleneck: 0 [1, 1024, 125, 63] 1,512,448 \u2502 \u2502 \u2514\u2500Bottleneck: 1 [1, 1024, 125, 63] 1,117,184 \u2502 \u2502 \u2514\u2500Bottleneck: 2 [1, 1024, 125, 63] 1,117,184 \u2502 \u2502 \u2514\u2500Bottleneck: 3 [1, 1024, 125, 63] 1,117,184 \u2502 \u2502 \u2514\u2500Bottleneck: 4 [1, 1024, 125, 63] 1,117,184 \u2502 \u2502 \u2514\u2500Bottleneck: 5 [1, 1024, 125, 63] 1,117,184 \u2502 \u2502 \u2514\u2500Bottleneck: 6 [1, 1024, 125, 63] 1,117,184\n\u2502 \u2502 \u2514\u2500Bottleneck: 7 [1, 1024, 125, 63] 1,117,184 \u2502 \u2502 \u2514\u2500Bottleneck: 8 [1, 1024, 125, 63] 1,117,184 \u2502 \u2502 \u2514\u2500Bottleneck: 9 [1, 1024, 125, 63] 1,117,184 \u2502 \u2502 \u2514\u2500Bottleneck: 10 [1, 1024, 125, 63] 1,117,184 \u2502 \u2502 \u2514\u2500Bottleneck: 11 [1, 1024, 125, 63] 1,117,184 \u2502 \u2502 \u2514\u2500Bottleneck: 12 [1, 1024, 125, 63] 1,117,184 \u2502 \u2502 \u2514\u2500Bottleneck: 13 [1, 1024, 125, 63] 1,117,184 \u2502 \u2502 \u2514\u2500Bottleneck: 14 [1, 1024, 125, 63] 1,117,184 \u2502 \u2502 \u2514\u2500Bottleneck: 15 [1, 1024, 125, 63] 1,117,184 \u2502 \u2502 \u2514\u2500Bottleneck: 16 [1, 1024, 125, 63] 1,117,184 \u2502 \u2502 \u2514\u2500Bottleneck: 17 [1, 1024, 125, 63] 1,117,184 \u2502 \u2502 \u2514\u2500Bottleneck: 18 [1, 1024, 125, 63] 1,117,184 \u2502 \u2502 \u2514\u2500Bottleneck: 19 [1, 1024, 125, 63] 1,117,184 \u2502 \u2502 \u2514\u2500Bottleneck: 20 [1, 1024, 125, 63] 1,117,184 \u2502 \u2502 \u2514\u2500Bottleneck: 21 [1, 1024, 125, 63] 1,117,184 \u2502 \u2502 \u2514\u2500Bottleneck: 22 [1, 1024, 125, 63] 1,117,184 \u2502 \u2514\u2500Sequential: 4 [1, 2048, 125, 63] -- \u2502 \u2502 \u2514\u2500Bottleneck: 0 [1, 2048, 125, 63] 6,039,552 \u2502 \u2502 \u2514\u2500Bottleneck: 1 [1, 2048, 125, 63] 4,462,592 \u2502 \u2502 \u2514\u2500Bottleneck: 2 [1, 2048, 125, 63] 4,462,592 \u251c\u2500FCNHead: [1, 6, 125, 63] -- \u2502 \u2514\u2500Conv2d: 0 [1, 512, 125, 63] 9,437,184 \u2502 \u2514\u2500BatchNorm2d: 1 [1, 512, 125, 63] 1,024 \u2502 \u2514\u2500ReLU: 2 [1, 512, 125, 63] -- \u2502 \u2514\u2500Dropout: 3 [1, 512, 125, 63] -- \u2502 \u2514\u2500Conv2d: 4 [1, 6, 125, 63] 3,078 ===================================================================== ========================== Total params: 51,941,446\nTrainable params: 51,941,446 Non-trainable params: 0 Total mult-adds (G): 415.05 ===================================================================== ========================== Input size (MB): 6.00 Forward/backward pass size (MB): 7395.96 Params size (MB): 207.77 Estimated 
…
